…
    "        x = F.relu(self.conv1(x))\n",
    "        x = self.pool(x)\n",
    "        x = F.relu(self.conv2(x))\n",
    "        x = self.pool(x)\n",
    "        x = F.relu(self.conv3(x))\n",
    "        x = x.reshape(x.shape[0], -1)\n",
    "        x = F.relu(self.fc1(x))\n",
    "        x = F.relu(self.fc2(x))\n",
    "        x = self.fc3(x)\n",
    "\n",
    "        return x    "
   ]
  },
  {
   "cell_type": "code",
   "execution_count": 123,
   "metadata": {},
   "outputs": [
    {
     "name": "stdout",
     "output_type": "stream",
     "text": [
      "SimpleCNN(\n",
      "  (conv1): Conv2d(3, 32, kernel_size=(3, 3), stride=(1, 1), padding=(1, 1))\n",
      "  (pool): MaxPool2d(kernel_size=(2, 2), stride=(2, 2), padding=0, dilation=1, ceil_mode=False)\n",
      "  (conv2): Conv2d(32, 64, kernel_size=(3, 3), stride=(1, 1), padding=(1, 1))\n",
      "  (conv3): Conv2d(64, 128, kernel_size=(3, 3), stride=(1, 1), padding=(1, 1))\n",
      "  (fc1): Linear(in_features=401408, out_features=64, bias=True)\n",
      "  (fc2): Linear(in_features=64, out_features=128, bias=True)\n",
      "  (fc3): Linear(in_features=128, out_features=2, bias=True)\n",
      ")\n"
     ]
    },
    {
     "data": {
      "text/plain": [
       "torch.Size([32, 2])"
      ]
     },
     "execution_count": 123,
     "metadata": {},
     "output_type": "execute_result"
    }
   ],
   "source": [
    "# simple_model = SimpleCNN()\n",
    "# print(simple_model)\n",
    "# test_input = torch.zeros(32,3,224,224)\n",
    "# test_output = simple_model(test_input)\n",
…
   "execution_count": 140,
   "metadata": {
    "ExecuteTime": {
     "end_time": "2020-09-28T07:28:17.632131Z",
     "start_time": "2020-09-28T07:28:17.404980Z"
    },
    "deletable": false,
    "editable": false,
    "nbgrader": {
     "cell_type": "code",
     "checksum": "02de22ac8bf7e829ea7f99221122b0fa",
     "grade": true,
     "grade_id": "cell-5dc1c89e9698d0d8",
     "locked": true,
     "points": 10,
     "schema_version": 3,
     "solution": false,
     "task": false
    }
   },
   "outputs": [
    {
     "name": "stdout",
     "output_type": "stream",
     "text": [
      "ResNet(\n",
      "  (conv1): Conv2d(3, 64, kernel_size=(7, 7), stride=(2, 2), padding=(3, 3), bias=False)\n",
      "  (bn1): BatchNorm2d(64, eps=1e-05, momentum=0.1, affine=True, track_running_stats=True)\n",
      "  (relu): ReLU(inplace=True)\n",
      "  (maxpool): MaxPool2d(kernel_size=3, stride=2, padding=1, dilation=1, ceil_mode=False)\n",
      "  (layer1): Sequential(\n",
      "    (0): BasicBlock(\n",
      "      (conv1): Conv2d(64, 64, kernel_size=(3, 3), stride=(1, 1), padding=(1, 1), bias=False)\n",
      "      (bn1): BatchNorm2d(64, eps=1e-05, momentum=0.1, affine=True, track_running_stats=True)\n",
      "      (relu): ReLU(inplace=True)\n",
      "      (conv2): Conv2d(64, 64, kernel_size=(3, 3), stride=(1, 1), padding=(1, 1), bias=False)\n",
      "      (bn2): BatchNorm2d(64, eps=1e-05, momentum=0.1, affine=True, track_running_stats=True)\n",
      "    )\n",
      "    (1): BasicBlock(\n",
      "      (conv1): Conv2d(64, 64, kernel_size=(3, 3), stride=(1, 1), padding=(1, 1), bias=False)\n",
      "      (bn1): BatchNorm2d(64, eps=1e-05, momentum=0.1, affine=True, track_running_stats=True)\n",
      "      (relu): ReLU(inplace=True)\n",
      "      (conv2): Conv2d(64, 64, kernel_size=(3, 3), stride=(1, 1), padding=(1, 1), bias=False)\n",
      "      (bn2): BatchNorm2d(64, eps=1e-05, momentum=0.1, affine=True, track_running_stats=True)\n",
      "    )\n",
      "  )\n",
      "  (layer2): Sequential(\n",
      "    (0): BasicBlock(\n",
      "      (conv1): Conv2d(64, 128, kernel_size=(3, 3), stride=(2, 2), padding=(1, 1), bias=False)\n",
      "      (bn1): BatchNorm2d(128, eps=1e-05, momentum=0.1, affine=True, track_running_stats=True)\n",
      "      (relu): ReLU(inplace=True)\n",
      "      (conv2): Conv2d(128, 128, kernel_size=(3, 3), stride=(1, 1), padding=(1, 1), bias=False)\n",
      "      (bn2): BatchNorm2d(128, eps=1e-05, momentum=0.1, affine=True, track_running_stats=True)\n",
      "      (downsample): Sequential(\n",
      "        (0): Conv2d(64, 128, kernel_size=(1, 1), stride=(2, 2), bias=False)\n",
      "        (1): BatchNorm2d(128, eps=1e-05, momentum=0.1, affine=True, track_running_stats=True)\n",
      "      )\n",
      "    )\n",
      "    (1): BasicBlock(\n",
      "      (conv1): Conv2d(128, 128, kernel_size=(3, 3), stride=(1, 1), padding=(1, 1), bias=False)\n",
      "      (bn1): BatchNorm2d(128, eps=1e-05, momentum=0.1, affine=True, track_running_stats=True)\n",
      "      (relu): ReLU(inplace=True)\n",
      "      (conv2): Conv2d(128, 128, kernel_size=(3, 3), stride=(1, 1), padding=(1, 1), bias=False)\n",
      "      (bn2): BatchNorm2d(128, eps=1e-05, momentum=0.1, affine=True, track_running_stats=True)\n",
      "    )\n",
      "  )\n",
      "  (layer3): Sequential(\n",
      "    (0): BasicBlock(\n",
      "      (conv1): Conv2d(128, 256, kernel_size=(3, 3), stride=(2, 2), padding=(1, 1), bias=False)\n",
      "      (bn1): BatchNorm2d(256, eps=1e-05, momentum=0.1, affine=True, track_running_stats=True)\n",
      "      (relu): ReLU(inplace=True)\n",
      "      (conv2): Conv2d(256, 256, kernel_size=(3, 3), stride=(1, 1), padding=(1, 1), bias=False)\n",
      "      (bn2): BatchNorm2d(256, eps=1e-05, momentum=0.1, affine=True, track_running_stats=True)\n",
      "      (downsample): Sequential(\n",
      "        (0): Conv2d(128, 256, kernel_size=(1, 1), stride=(2, 2), bias=False)\n",
      "        (1): BatchNorm2d(256, eps=1e-05, momentum=0.1, affine=True, track_running_stats=True)\n",
      "      )\n",
      "    )\n",
      "    (1): BasicBlock(\n",
      "      (conv1): Conv2d(256, 256, kernel_size=(3, 3), stride=(1, 1), padding=(1, 1), bias=False)\n",
      "      (bn1): BatchNorm2d(256, eps=1e-05, momentum=0.1, affine=True, track_running_stats=True)\n",
      "      (relu): ReLU(inplace=True)\n",
      "      (conv2): Conv2d(256, 256, kernel_size=(3, 3), stride=(1, 1), padding=(1, 1), bias=False)\n",
      "      (bn2): BatchNorm2d(256, eps=1e-05, momentum=0.1, affine=True, track_running_stats=True)\n",
      "    )\n",
      "  )\n",
      "  (layer4): Sequential(\n",
      "    (0): BasicBlock(\n",
      "      (conv1): Conv2d(256, 512, kernel_size=(3, 3), stride=(2, 2), padding=(1, 1), bias=False)\n",
      "      (bn1): BatchNorm2d(512, eps=1e-05, momentum=0.1, affine=True, track_running_stats=True)\n",
      "      (relu): ReLU(inplace=True)\n",
      "      (conv2): Conv2d(512, 512, kernel_size=(3, 3), stride=(1, 1), padding=(1, 1), bias=False)\n",
      "      (bn2): BatchNorm2d(512, eps=1e-05, momentum=0.1, affine=True, track_running_stats=True)\n",
      "      (downsample): Sequential(\n",
      "        (0): Conv2d(256, 512, kernel_size=(1, 1), stride=(2, 2), bias=False)\n",
      "        (1): BatchNorm2d(512, eps=1e-05, momentum=0.1, affine=True, track_running_stats=True)\n",
      "      )\n",
      "    )\n",
      "    (1): BasicBlock(\n",
      "      (conv1): Conv2d(512, 512, kernel_size=(3, 3), stride=(1, 1), padding=(1, 1), bias=False)\n",
      "      (bn1): BatchNorm2d(512, eps=1e-05, momentum=0.1, affine=True, track_running_stats=True)\n",
      "      (relu): ReLU(inplace=True)\n",
      "      (conv2): Conv2d(512, 512, kernel_size=(3, 3), stride=(1, 1), padding=(1, 1), bias=False)\n",
      "      (bn2): BatchNorm2d(512, eps=1e-05, momentum=0.1, affine=True, track_running_stats=True)\n",
      "    )\n",
      "  )\n",
      "  (avgpool): AdaptiveAvgPool2d(output_size=(1, 1))\n",
      "  (fc): Linear(in_features=512, out_features=2, bias=True)\n",
      ")\n",
      "ResNet(\n",
      "  (conv1): Conv2d(3, 64, kernel_size=(7, 7), stride=(2, 2), padding=(3, 3), bias=False)\n",
      "  (bn1): BatchNorm2d(64, eps=1e-05, momentum=0.1, affine=True, track_running_stats=True)\n",
      "  (relu): ReLU(inplace=True)\n",
      "  (maxpool): MaxPool2d(kernel_size=3, stride=2, padding=1, dilation=1, ceil_mode=False)\n",
      "  (layer1): Sequential(\n",
      "    (0): BasicBlock(\n",
      "      (conv1): Conv2d(64, 64, kernel_size=(3, 3), stride=(1, 1), padding=(1, 1), bias=False)\n",
      "      (bn1): BatchNorm2d(64, eps=1e-05, momentum=0.1, affine=True, track_running_stats=True)\n",
      "      (relu): ReLU(inplace=True)\n",
      "      (conv2): Conv2d(64, 64, kernel_size=(3, 3), stride=(1, 1), padding=(1, 1), bias=False)\n",
      "      (bn2): BatchNorm2d(64, eps=1e-05, momentum=0.1, affine=True, track_running_stats=True)\n",
      "    )\n",
      "    (1): BasicBlock(\n",
      "      (conv1): Conv2d(64, 64, kernel_size=(3, 3), stride=(1, 1), padding=(1, 1), bias=False)\n",
      "      (bn1): BatchNorm2d(64, eps=1e-05, momentum=0.1, affine=True, track_running_stats=True)\n",
      "      (relu): ReLU(inplace=True)\n",
      "      (conv2): Conv2d(64, 64, kernel_size=(3, 3), stride=(1, 1), padding=(1, 1), bias=False)\n",
      "      (bn2): BatchNorm2d(64, eps=1e-05, momentum=0.1, affine=True, track_running_stats=True)\n",
      "    )\n",
      "  )\n",
      "  (layer2): Sequential(\n",
      "    (0): BasicBlock(\n",
      "      (conv1): Conv2d(64, 128, kernel_size=(3, 3), stride=(2, 2), padding=(1, 1), bias=False)\n",
      "      (bn1): BatchNorm2d(128, eps=1e-05, momentum=0.1, affine=True, track_running_stats=True)\n",
      "      (relu): ReLU(inplace=True)\n",
      "      (conv2): Conv2d(128, 128, kernel_size=(3, 3), stride=(1, 1), padding=(1, 1), bias=False)\n",
      "      (bn2): BatchNorm2d(128, eps=1e-05, momentum=0.1, affine=True, track_running_stats=True)\n",
      "      (downsample): Sequential(\n",
      "        (0): Conv2d(64, 128, kernel_size=(1, 1), stride=(2, 2), bias=False)\n",
      "        (1): BatchNorm2d(128, eps=1e-05, momentum=0.1, affine=True, track_running_stats=True)\n",
      "      )\n",
      "    )\n",
      "    (1): BasicBlock(\n",
      "      (conv1): Conv2d(128, 128, kernel_size=(3, 3), stride=(1, 1), padding=(1, 1), bias=False)\n",
      "      (bn1): BatchNorm2d(128, eps=1e-05, momentum=0.1, affine=True, track_running_stats=True)\n",
      "      (relu): ReLU(inplace=True)\n",
      "      (conv2): Conv2d(128, 128, kernel_size=(3, 3), stride=(1, 1), padding=(1, 1), bias=False)\n",
      "      (bn2): BatchNorm2d(128, eps=1e-05, momentum=0.1, affine=True, track_running_stats=True)\n",
      "    )\n",
      "  )\n",
      "  (layer3): Sequential(\n",
      "    (0): BasicBlock(\n",
      "      (conv1): Conv2d(128, 256, kernel_size=(3, 3), stride=(2, 2), padding=(1, 1), bias=False)\n",
      "      (bn1): BatchNorm2d(256, eps=1e-05, momentum=0.1, affine=True, track_running_stats=True)\n",
      "      (relu): ReLU(inplace=True)\n",
      "      (conv2): Conv2d(256, 256, kernel_size=(3, 3), stride=(1, 1), padding=(1, 1), bias=False)\n",
      "      (bn2): BatchNorm2d(256, eps=1e-05, momentum=0.1, affine=True, track_running_stats=True)\n",
      "      (downsample): Sequential(\n",
      "        (0): Conv2d(128, 256, kernel_size=(1, 1), stride=(2, 2), bias=False)\n",
      "        (1): BatchNorm2d(256, eps=1e-05, momentum=0.1, affine=True, track_running_stats=True)\n",
      "      )\n",
      "    )\n",
      "    (1): BasicBlock(\n",
      "      (conv1): Conv2d(256, 256, kernel_size=(3, 3), stride=(1, 1), padding=(1, 1), bias=False)\n",
      "      (bn1): BatchNorm2d(256, eps=1e-05, momentum=0.1, affine=True, track_running_stats=True)\n",
      "      (relu): ReLU(inplace=True)\n",
      "      (conv2): Conv2d(256, 256, kernel_size=(3, 3), stride=(1, 1), padding=(1, 1), bias=False)\n",
      "      (bn2): BatchNorm2d(256, eps=1e-05, momentum=0.1, affine=True, track_running_stats=True)\n",
      "    )\n",
      "  )\n",
      "  (layer4): Sequential(\n",
      "    (0): BasicBlock(\n",
      "      (conv1): Conv2d(256, 512, kernel_size=(3, 3), stride=(2, 2), padding=(1, 1), bias=False)\n",
      "      (bn1): BatchNorm2d(512, eps=1e-05, momentum=0.1, affine=True, track_running_stats=True)\n",
      "      (relu): ReLU(inplace=True)\n",
      "      (conv2): Conv2d(512, 512, kernel_size=(3, 3), stride=(1, 1), padding=(1, 1), bias=False)\n",
      "      (bn2): BatchNorm2d(512, eps=1e-05, momentum=0.1, affine=True, track_running_stats=True)\n",
      "      (downsample): Sequential(\n",
      "        (0): Conv2d(256, 512, kernel_size=(1, 1), stride=(2, 2), bias=False)\n",
      "        (1): BatchNorm2d(512, eps=1e-05, momentum=0.1, affine=True, track_running_stats=True)\n",
      "      )\n",
      "    )\n",
      "    (1): BasicBlock(\n",
      "      (conv1): Conv2d(512, 512, kernel_size=(3, 3), stride=(1, 1), padding=(1, 1), bias=False)\n",
      "      (bn1): BatchNorm2d(512, eps=1e-05, momentum=0.1, affine=True, track_running_stats=True)\n",
      "      (relu): ReLU(inplace=True)\n",
      "      (conv2): Conv2d(512, 512, kernel_size=(3, 3), stride=(1, 1), padding=(1, 1), bias=False)\n",
      "      (bn2): BatchNorm2d(512, eps=1e-05, momentum=0.1, affine=True, track_running_stats=True)\n",
      "    )\n",
      "  )\n",
      "  (avgpool): AdaptiveAvgPool2d(output_size=(1, 1))\n",
      "  (fc): Linear(in_features=512, out_features=2, bias=True)\n",
      ")\n"
     ]
    }
   ],
   "source": [
    "'''\n",
    "AUTOGRADER CELL. DO NOT MODIFY THIS.\n",
    "'''\n",
    "\n",
    "assert issubclass(type(get_cnn_model()), nn.Module), \"Your CNN model should be a torch.nn.Module instance\"\n",
    "model = get_cnn_model()\n",
    "assert len(list(model.modules())) == 68, \"# of modules mismtach - Please use ResNet18\"\n",
…
    "Due to the computation environment constraint, we will load some pre-trained weights instead of training everything from scratch. "
   ]
  },
  {
   "cell_type": "code",
   "execution_count": 141,
   "metadata": {
    "deletable": false,
    "editable": false,
    "nbgrader": {
     "cell_type": "code",
     "checksum": "5aa86039e33d49c1bb3473d2552cd395",
     "grade": false,
     "grade_id": "cell-51d29fbc3eaa9c24",
     "locked": true,
     "schema_version": 3,
     "solution": false,
     "task": false
    }
   },
   "outputs": [
    {
     "name": "stdout",
     "output_type": "stream",
     "text": [
      "ResNet(\n",
      "  (conv1): Conv2d(3, 64, kernel_size=(7, 7), stride=(2, 2), padding=(3, 3), bias=False)\n",
      "  (bn1): BatchNorm2d(64, eps=1e-05, momentum=0.1, affine=True, track_running_stats=True)\n",
      "  (relu): ReLU(inplace=True)\n",
      "  (maxpool): MaxPool2d(kernel_size=3, stride=2, padding=1, dilation=1, ceil_mode=False)\n",
      "  (layer1): Sequential(\n",
      "    (0): BasicBlock(\n",
      "      (conv1): Conv2d(64, 64, kernel_size=(3, 3), stride=(1, 1), padding=(1, 1), bias=False)\n",
      "      (bn1): BatchNorm2d(64, eps=1e-05, momentum=0.1, affine=True, track_running_stats=True)\n",
      "      (relu): ReLU(inplace=True)\n",
      "      (conv2): Conv2d(64, 64, kernel_size=(3, 3), stride=(1, 1), padding=(1, 1), bias=False)\n",
      "      (bn2): BatchNorm2d(64, eps=1e-05, momentum=0.1, affine=True, track_running_stats=True)\n",
      "    )\n",
      "    (1): BasicBlock(\n",
      "      (conv1): Conv2d(64, 64, kernel_size=(3, 3), stride=(1, 1), padding=(1, 1), bias=False)\n",
      "      (bn1): BatchNorm2d(64, eps=1e-05, momentum=0.1, affine=True, track_running_stats=True)\n",
      "      (relu): ReLU(inplace=True)\n",
      "      (conv2): Conv2d(64, 64, kernel_size=(3, 3), stride=(1, 1), padding=(1, 1), bias=False)\n",
      "      (bn2): BatchNorm2d(64, eps=1e-05, momentum=0.1, affine=True, track_running_stats=True)\n",
      "    )\n",
      "  )\n",
      "  (layer2): Sequential(\n",
      "    (0): BasicBlock(\n",
      "      (conv1): Conv2d(64, 128, kernel_size=(3, 3), stride=(2, 2), padding=(1, 1), bias=False)\n",
      "      (bn1): BatchNorm2d(128, eps=1e-05, momentum=0.1, affine=True, track_running_stats=True)\n",
      "      (relu): ReLU(inplace=True)\n",
      "      (conv2): Conv2d(128, 128, kernel_size=(3, 3), stride=(1, 1), padding=(1, 1), bias=False)\n",
      "      (bn2): BatchNorm2d(128, eps=1e-05, momentum=0.1, affine=True, track_running_stats=True)\n",
      "      (downsample): Sequential(\n",
      "        (0): Conv2d(64, 128, kernel_size=(1, 1), stride=(2, 2), bias=False)\n",
      "        (1): BatchNorm2d(128, eps=1e-05, momentum=0.1, affine=True, track_running_stats=True)\n",
      "      )\n",
      "    )\n",
      "    (1): BasicBlock(\n",
      "      (conv1): Conv2d(128, 128, kernel_size=(3, 3), stride=(1, 1), padding=(1, 1), bias=False)\n",
      "      (bn1): BatchNorm2d(128, eps=1e-05, momentum=0.1, affine=True, track_running_stats=True)\n",
      "      (relu): ReLU(inplace=True)\n",
      "      (conv2): Conv2d(128, 128, kernel_size=(3, 3), stride=(1, 1), padding=(1, 1), bias=False)\n",
      "      (bn2): BatchNorm2d(128, eps=1e-05, momentum=0.1, affine=True, track_running_stats=True)\n",
      "    )\n",
      "  )\n",
      "  (layer3): Sequential(\n",
      "    (0): BasicBlock(\n",
      "      (conv1): Conv2d(128, 256, kernel_size=(3, 3), stride=(2, 2), padding=(1, 1), bias=False)\n",
      "      (bn1): BatchNorm2d(256, eps=1e-05, momentum=0.1, affine=True, track_running_stats=True)\n",
      "      (relu): ReLU(inplace=True)\n",
      "      (conv2): Conv2d(256, 256, kernel_size=(3, 3), stride=(1, 1), padding=(1, 1), bias=False)\n",
      "      (bn2): BatchNorm2d(256, eps=1e-05, momentum=0.1, affine=True, track_running_stats=True)\n",
      "      (downsample): Sequential(\n",
      "        (0): Conv2d(128, 256, kernel_size=(1, 1), stride=(2, 2), bias=False)\n",
      "        (1): BatchNorm2d(256, eps=1e-05, momentum=0.1, affine=True, track_running_stats=True)\n",
      "      )\n",
      "    )\n",
      "    (1): BasicBlock(\n",
      "      (conv1): Conv2d(256, 256, kernel_size=(3, 3), stride=(1, 1), padding=(1, 1), bias=False)\n",
      "      (bn1): BatchNorm2d(256, eps=1e-05, momentum=0.1, affine=True, track_running_stats=True)\n",
      "      (relu): ReLU(inplace=True)\n",
      "      (conv2): Conv2d(256, 256, kernel_size=(3, 3), stride=(1, 1), padding=(1, 1), bias=False)\n",
      "      (bn2): BatchNorm2d(256, eps=1e-05, momentum=0.1, affine=True, track_running_stats=True)\n",
      "    )\n",
      "  )\n",
      "  (layer4): Sequential(\n",
      "    (0): BasicBlock(\n",
      "      (conv1): Conv2d(256, 512, kernel_size=(3, 3), stride=(2, 2), padding=(1, 1), bias=False)\n",
      "      (bn1): BatchNorm2d(512, eps=1e-05, momentum=0.1, affine=True, track_running_stats=True)\n",
      "      (relu): ReLU(inplace=True)\n",
      "      (conv2): Conv2d(512, 512, kernel_size=(3, 3), stride=(1, 1), padding=(1, 1), bias=False)\n",
      "      (bn2): BatchNorm2d(512, eps=1e-05, momentum=0.1, affine=True, track_running_stats=True)\n",
      "      (downsample): Sequential(\n",
      "        (0): Conv2d(256, 512, kernel_size=(1, 1), stride=(2, 2), bias=False)\n",
      "        (1): BatchNorm2d(512, eps=1e-05, momentum=0.1, affine=True, track_running_stats=True)\n",
      "      )\n",
      "    )\n",
      "    (1): BasicBlock(\n",
      "      (conv1): Conv2d(512, 512, kernel_size=(3, 3), stride=(1, 1), padding=(1, 1), bias=False)\n",
      "      (bn1): BatchNorm2d(512, eps=1e-05, momentum=0.1, affine=True, track_running_stats=True)\n",
      "      (relu): ReLU(inplace=True)\n",
      "      (conv2): Conv2d(512, 512, kernel_size=(3, 3), stride=(1, 1), padding=(1, 1), bias=False)\n",
      "      (bn2): BatchNorm2d(512, eps=1e-05, momentum=0.1, affine=True, track_running_stats=True)\n",
      "    )\n",
      "  )\n",
      "  (avgpool): AdaptiveAvgPool2d(output_size=(1, 1))\n",
      "  (fc): Linear(in_features=512, out_features=2, bias=True)\n",
      ")\n"
     ]
    },
    {
     "data": {
      "text/plain": [
       "<All keys matched successfully>"
      ]
     },
     "execution_count": 141,
     "metadata": {},
     "output_type": "execute_result"
    }
   ],
   "source": [
    "model = get_cnn_model()\n",
    "#Load the pretrained weights\n",
    "#If it fails, it probably means you did not define the model correctly\n",
…
